backend/app/best_model.pth (torch, 564919 bytes, 8 tensors)

features.0.weight f4 [32, 1, 3, 3]
00000000: 3b95 aa3e 1adf ba3e 15b3 403d 7446 97bb
00000010: 9060 bd3e 3285 9bbc a33c 353e dbbf 153e
00000020: 176a 753e 6d39 663f 4a65 e03e db7d 04bc
00000030: b9f3 96bf daeb a8bf ebda 79bf c4d4 2f3e
00000040: cdcf 083f 2efd 423f 5b15 77bf 42fb 813e
00000050: dc9d 0f3f 8e37 58bf de9c c23e 12ef 203f
00000060: 5927 3dbf 707d 7fbd dbb5 233f 45e9 9f3e
00000070: 7166 b23e 044b d63e 8079 9e3e c930 18bd
00000080: 76d4 933e 4a6e 02bf 22fd 1abe 037e e2be
00000090: a062 e23d 61c2 cc3e 6923 bc3e ece3 783d
000000a0: fbec f93e aa57 da3e fc1d 3dbf 6a01 65bf
000000b0: f7a2 0fbe 86cf 14bf e3ea 8ebf 2048 873f
000000c0: 6889 223f d0ae 91bf d8c0 d2be 2465 703f
000000d0: be84 22bf 5e18 40bf de2f c93b d550 abbf
000000e0: 538a 80bf 5391 bbbf 7d24 9fbf 9596 323f
000000f0: 43cd 8abf 851c 0c3f 8c80 903f 5479 e13e
00000100: 0bee 21bf 5745 9bbe 58e2 893f 8905 54bf
00000110: f60e e7be 2b85 0a3f ae05 60bf 0163 8cbe
00000120: 3f23 3fbf ab2b 7fbf ddf2 b9be 6485 b1bb
00000130: ce26 fa3e 8051 473e ebf1 2d3f e8dd 1a3f
00000140: 02e0 ba3d 2581 263f 8895 b8be c287 1bbe
00000150: e457 ef3e fb6b 62bf 97f3 443d 17b5 54bf
00000160: c158 62bf 7374 ac3f 11b4 3d3f fbbe 6abf
00000170: 0878 cabd 9612 453f 91ed 85bf efe2 393e
00000180: b73f 323e 50ad 94bf 7f01 1d3f 4e62 6f3e
00000190: b144 9d3e 8e76 043e 2003 5a3e 7398 b53e
000001a0: 87cd ec3d a07e 00be 5e16 fc3e cc78 23bd
000001b0: d4f3 4a3e 5fdd 8c3e 98ec 013f 8e68 aa3c
000001c0: 6dce 8a3e c9aa 9c3e 5402 74be 2355 b23c
000001d0: dfdd 403d b12a 4ebf 4b96 39bf 2436 91bf
000001e0: 3d55 97be 90bd 2b3f ea33 553e c91b 1b3f
000001f0: 1f47 b03e 5843 373f 07d2 1d3f b168 b93e
00000200: 51e4 7c3e 8ede b2ba a8c0 fa3e 3aae c73e
00000210: ec03 44bf 9839 4cbf 7899 5dbf 6770 c43e
00000220: 7d02 313e 236f 20bf b612 2f3f a7b1 d23d
00000230: fac0 1fbf 1691 113f 715f 53be 978a 13bf
00000240: c7b5 50bf a80a fe3e 4226 af3e f7b8 58bf
00000250: 9993 2d3f 611f c13e 1aa8 5ebf e981 333f
00000260: bbb3 ee3c 9c66 0b3f 5cd0 823f c3f4 3d3f
00000270: a4e9 6dbf 940b 60bf 7d7b 61bf 93ef 87be
00000280: f1f3 4abe c789 b3be d73b b9bf 6d65 f8be
00000290: d00e 5d3e 73af f9bd 74f7 afbe 275d 63bf
000002a0: 4945 cabd f314 6fbc 0577 a9bf d249 4c3f
000002b0: 2143 48bd b892 96be 9af7 323d 5ca4 193f
000002c0: 6326 a23e ddc6 64bf e3f5 14bf 8dea 253e
000002d0: 833b a1bd 09fb d73e c0fc c33e ea14 913e
000002e0: c6d2 8a3e 9544 de3e 8e85 893d e2af ca3e
000002f0: 22f7 d43e 09b5 033f b76f 013f 2b66 833e
00000300: 8fd1 c03c ca93 d63c febf 9e3e bebd 6c3d
00000310: 8a25 873e 7e1f 0c3e 7dd8 56bd 7425 6d3e
00000320: 570c fcbd c1d4 593d 6ace a83e 6802 f93d
00000330: 6d24 023f 2578 5bbd 01a3 ad3e f13c 73bd
00000340: 3206 f23e 3d83 b33e 32b3 a83d f2d0 36be
00000350: 9912 d03e b33c 253c 184f 153e 1d84 96be
00000360: 86bd bf3e ee1b 093e 454b 36be de50 ad3d
00000370: 4c13 833e 8021 0c3e 652c 0bbe c460 4ebe
00000380: 6b80 8a3e 0b34 3dbd b00f 32be 9d56 4dbf
00000390: cbdf 013f fbdc 013f cbf5 923e 7e79 e6be
000003a0: 7f95 553d a609 323e 577f 413d 394d 553d
000003b0: 71c8 9e3d d53d 8c3e 9f1c 8b3e 69dc 2c3e
000003c0: 3951 babe 31aa 0b3e 7797 453d 0930 a23e
000003d0: 88ca 46be 5517 08bf 5131 88bf b1b8 7fbf
000003e0: 179a 6cbf 955b 093f 5606 803f 0887 603f
000003f0: eb9b fc3e 2536 093e de4a 53bf 666e 103f
0.3331698 0.36498338 0.047045786 -0.004616553 0.36987734 -0.01898441 0.17698912 0.14623968
0.23966251 0.89931375 0.43827277 -0.008086647 -1.1793128 -1.3196976 -0.9759967 0.17171007
0.5344208 0.7616757 -0.9651696 0.25387007 0.5610025 -0.8445977 0.38010305 0.6286479
-0.73888165 -0.062375486 0.63949364 0.31232658 0.34843782 0.41854107 0.30952072 -0.0371559
0.28873032 -0.5094954 -0.15135625 -0.44236764 0.110539675 0.3999205 0.36745766 0.06076424
0.48813614 0.42645007 -0.7387388 -0.8945528 -0.1402701 -0.58129156 -1.1165432 1.0568886
0.63490915 -1.1381474 -0.41162753 0.9390433 -0.634838 -0.7503718 0.0061397394 -1.3384043
-1.0042213 -1.4653724 -1.243301 0.6976102 -1.0843891 0.5473102 1.1289229 0.4403788
-0.6325385 -0.3032634 1.07722 -0.82820946 -0.45128602 0.5410945 -0.87508667 -0.27419284
-0.74663156 -0.9967601 -0.36318102 -0.0054175127 0.4885773 0.19464684 0.6794726 0.6049485
0.09124757 0.6504081 -0.36051583 -0.15188506 0.46746743 -0.88446015 0.048083868 -0.8308882
-0.8841668 1.3473037 0.74102885 -0.91697663 -0.098861754 0.76981485 -1.0463125 0.18152975
0.17407118 -1.1615391 0.6133041 0.23377344 0.3071647 0.1293585 0.21290255 0.35467872
0.11562639 -0.12548304 0.49235815 -0.039910123 0.19819576 0.27512643 0.5075164 0.020801809
0.27110615 0.3059905 -0.23829013 0.021769112 0.047086593 -0.8053389 -0.72494954 -1.1344647
-0.2955722 0.67086124 0.20820585 0.6058927 0.3442926 0.71587133 0.616486 0.36212686
0.24696471 -0.0013646649 0.4897511 0.39000112 -0.76568484 -0.7977538 -0.865623 0.38367006
0.17286105 -0.6266958 0.68387926 0.10287791 -0.62403834 0.5686201 -0.20641877 -0.57633346
-0.8152737 0.49617505 0.34208876 -0.84657234 0.6780334 0.37719253 -0.8697525 0.701201
0.029138437 0.54453444 1.0219836 0.742016 -0.9293463 -0.87517667 -0.88079053 -0.26549968
-0.19819619 -0.35066053 -1.4471387 -0.48514882 0.21587682 -0.121916674 -0.3436848 -0.88814014
-0.09876496 -0.014592397 -1.3239447 0.7980014 -0.048892144 -0.29408813 0.043693163 0.6001642
0.31669912 -0.8936594 -0.58187693 0.16202755 -0.07872679 0.42183712 0.3827877 0.2833627
0.27113932 0.434117 0.06714927 0.39587313 0.41594797 0.5144811 0.5056109 0.25663885
0.023537425 0.026193518 0.31005853 0.05779814 0.26395828 0.13683888 -0.052452553 0.23158818
-0.12307041 0.053181414 0.3296998 0.12158662 0.5083683 -0.053581376 0.33913425 -0.05938429
0.47270352 0.35061064 0.08237304 -0.17853144 0.4063919 0.010085273 0.14580953 -0.2939767
0.37449282 0.1338956 -0.1780215 0.0846269 0.2560066 0.13684654 -0.13591154 -0.201541
0.270511 -0.04619221 -0.17388797 -0.80210286 0.50732106 0.50727814 0.2870315 -0.45014566
0.052144524 0.17386493 0.04724058 0.0520756 0.07753075 0.27390924 0.27170274 0.16880955
-0.36390093 0.13639142 0.04824015 0.31677273 -0.19413197 -0.531606 -1.064005 -0.9989119
-0.9242262 0.5365537 1.0001934 0.8770604 0.49337706 0.13399561 -0.82536113 0.56418455

features.0.bias f4 [32]
00000000: 5762 b03e 9f56 293f dd7f e33d cd91 6c3e
00000010: cc8c d7bd 5ae9 063f 9f37 4f3f be91 863e
00000020: 9657 ae3c df00 8e3e a3b1 e63e ca8d 443e
00000030: 4713 c53c 0a30 c53e d410 9d3e 2cd8 ac3d
00000040: a9bc 02be 01cc d03e 172e 333e ba07 07be
00000050: 6fb4 18be be14 ecbd 81f0 7a3d c440 633e
00000060: cf81 4a3e 8b95 9ebd b683 843e 4b28 293f
00000070: e8ca 933c 479a 6c3e 5751 8a3e 3085 f73e
0.34450027 0.661478 0.11108372 0.23102494 -0.10524902 0.52699816 0.80944246 0.26283067
0.021281999 0.2773504 0.450574 0.19194713 0.024057044 0.38513213 0.306769 0.08439669
-0.1276728 0.40780643 0.1749805 -0.13186541 -0.1491258 -0.11527394 0.06126452 0.22192675
0.1977608 -0.07743367 0.25881737 0.6607711 0.01804109 0.23105727 0.27015182 0.48343801

features.3.weight f4 [64, 32, 3, 3]
00000000: fdb3 b9bd b276 a13c ae9d 9dbd 0c2d 7bbd
00000010: e57d 77bd eb48 4cbd 0e1b 37bc 4c00 edbc
00000020: 4faf 99bd a328 5abc d081 e2bd a1d0 debb
00000030: 3827 70bd 254e bebd b01b 713c cff5 00ba
00000040: d63c e73d e471 493e 7045 633e 911d 1dbd
00000050: 0fd1 3c3e 0fa7 633e e5de aabb db4f fc3d
00000060: ff08 c03d 9b05 bfbd 95b2 96bd c22d 5cbd
00000070: abdc d4bd 289a 26bd 8f1d 22be b484 dbbd
00000080: 50f7 2dbd 67b8 0bbe 44d5 8dbd 6e45 1ebd
00000090: 8556 c6bb cca4 b4bb cd50 c03d 3bbc 8f3c
000000a0: 73ea 70bd 1982 37bd b678 373d e023 5a3d
000000b0: 2c23 bebc 4c03 c13c 506b 5cbd 8e16 cf3d
000000c0: 2332 8d3e 5b5c a83d 859a 9a3d 41e5 a43e
000000d0: 9c82 ee3d bddf 323e 710a 073e 6f45 e0bd
000000e0: dd02 f6bc d9e7 13be 3978 0dbe d6e3 56bd
000000f0: 1ddb 32be f087 1abe 2862 2cbd 8bd7 713d
00000100: a8e1 803b 3153 403e 332d b03d aabe debd
00000110: b04d 093e 0011 9b3d 222d 4ebe 64bc 403e
00000120: ce16 5b3d dd82 d93d ad7d d13d 0bdf 20be
00000130: 4817 a9be 428f c1bc e71b 883c c69c 013e
00000140: 274c 643e 2750 423e 0402 59bd 01f3 283e
00000150: 54a1 d93d beb9 71bd 3e00 fe3d c990 133d
00000160: 9760 b33c 40c4 4e3e fa94 313e 1b86 b2bd
00000170: 862f 5b3e cfcc e23d 26cf 1dbd aaf5 ae3d
00000180: 1f47 e13d 1831 17be a8d3 543e 0404 01bc
00000190: 81be 193b 7e73 b5ba e903 bebd 8391 ffbd
000001a0: 1496 cfbc 558d 10bd bcd0 f0bd e384 04be
000001b0: 438a a3bd f7b7 aebc 358c 5fbd eff8 b5bd
000001c0: 4a39 f8bd 6921 aabd 1586 c9bd d733 05be
000001d0: 6765 fbbd a44c a93d 55c9 dc3d 02d8 dd3d
000001e0: cda1 53be 6124 8ebe ce9a 4bbc 5349 d7bc
000001f0: be52 753d 9306 103e 9e03 91bc 2484 11be
00000200: f4f5 d23c 8dfe 30bd e587 a0bd fda4 8ebc
00000210: 5e86 88bd 11f1 933c 2795 d23d aebd 17bc
00000220: 363d 3cbd ead1 3abc c7cf 11bd 741b 80bd
00000230: a4c5 f83c d3de 553d 33c1 35be 8051 0c3d
00000240: e86d 643e 3ad5 5cbd 974d 0a3e dbbe 433e
00000250: 54c2 61bd 6c05 573e f492 c63c 8b9f a2bd
00000260: 348d d6bc f9ef 60be 7d6d 0abe 4891 46be
00000270: 730c dcbd 632c 9fbd 62db 96bd e656 613d
00000280: 87e2 403e bd0f 563e d9b9 dfba 5bb7 35be
00000290: 485d a33c 55d7 673e b679 0b3e 8c02 ab3c
000002a0: 301d 823e 1a83 423e bd7d 0a3e 1fe1 ee3d
000002b0: 04ad 2bbd 93fc e53c dba3 bcbc b21b 9f3c
000002c0: 6bb5 adbc eba1 253d 4e04 f23d 151f 01bb
000002d0: fa3c b2bd da60 18bd dc0e a0bd c8be a5bd
000002e0: 924f d4bd f12e a3bd eff6 1fbe 19ce dfbd
000002f0: ba7f e6bd 9744 f2bd 42b2 91bd 8928 97bc
00000300: 0e3b 28be 6601 0bbe 4d05 98bd 089b 1bbe
00000310: c251 8fbd deca c4bd 4a36 c7bc adc0 80bd
00000320: 8f0c b9bc d082 f1bd 11ce 77bd f92f c7bc
00000330: 186f c8bd 4b94 8ebd 7ebd 4abd 805a 2bbd
00000340: a0ed 013d 5c84 92bd a249 babd 3671 4ebc
00000350: 07c9 0c3c 7be9 14bd b02c bdbc 8a0e 22bd
00000360: d91d 9cbd ba7f 02bd af20 5fbc 6986 7cbd
00000370: e11a 6bbc 1bf5 cbbd f4ab 5e3d f1a7 263c
00000380: e3fb 27bd cf6c d43d 5541 c53d 7239 313e
00000390: 0b30 10be 5a1e 13be 04f0 69be fdb0 2e3e
000003a0: ce71 0bbd 84af 39be f9e1 1a3d ce50 36bd
000003b0: 17f8 643d 3643 cbbd 4087 4cbd 9375 1bbd
000003c0: 0622 60bc 4721 7bbd e4ff 4bbd 41ff 37bd
000003d0: 7424 01be 925c 253d 82a6 e9bd 3659 4dbd
000003e0: 1c14 82bc 3b24 b5bd 31cf 6fbc 1d1f 703d
000003f0: cd15 c63c b3ea 823d 1f9d a63d 887c 083e
-0.09067533 0.019709919 -0.07696091 -0.061322257 -0.060422797 -0.049874227 -0.011175884 -0.028930806
-0.075041406 -0.013315353 -0.11059916 -0.006799773 -0.058631152 -0.09292249 0.014716074 -0.0004919441
0.112909004 0.19672352 0.22194457 -0.038358275 0.18439125 0.22231697 -0.0052145594 0.12319919
0.09376716 -0.09327241 -0.073582806 -0.053754576 -0.103936516 -0.04067436 -0.15831588 -0.107186705
-0.042472184 -0.13644563 -0.06925443 -0.038640432 -0.0060527944 -0.0055128094 0.093904115 0.01754581
-0.05881734 -0.044801805 0.044792853 0.05325687 -0.02321013 0.023561142 -0.05381328 0.10111724
0.27577314 0.082207404 0.075490035 0.32206157 0.116460055 0.17468162 0.13187577 -0.109507434
-0.030030662 -0.14443912 -0.13815393 -0.052463375 -0.17466398 -0.15090919 -0.042085797 0.05904345
0.0039331503 0.18781735 0.08602371 -0.1087621 0.13408542 0.07571602 -0.20134404 0.18821865
0.053488545 0.10620663 0.10229049 -0.15710084 -0.33025575 -0.023627881 0.016614867 0.1265746
0.22294675 0.18975888 -0.052980438 0.16498949 0.10626474 -0.05901503 0.1240239 0.03602675
0.021896644 0.20192051 0.17341986 -0.08716985 0.21404848 0.110742204 -0.03852763 0.085429505
0.109998934 -0.14764822 0.20783865 -0.007874493 0.0023459496 -0.0013843623 -0.092780896 -0.12478926
-0.025340118 -0.035291035 -0.11758563 -0.12941317 -0.07985356 -0.021327956 -0.05457707 -0.08885371
-0.12120302 -0.08307154 -0.09840027 -0.13008057 -0.122752 0.08266571 0.107805885 0.10832216
-0.20667191 -0.2776213 -0.012427045 -0.02628008 0.059893362 0.14065008 -0.01770192 -0.14210564
0.025752045 -0.04321151 -0.0783842 -0.017412657 -0.066662535 0.018059285 0.10282355 -0.009261532
-0.045956813 -0.0114025865 -0.035598543 -0.06255236 0.03036768 0.052214455 -0.17749481 0.034257412
0.22307551 -0.053914286 0.1350616 0.19115774 -0.055116966 0.20998162 0.024239995 -0.07940587
-0.026190378 -0.21966542 -0.13518329 -0.19391358 -0.10744562 -0.07772138 -0.07366063 0.055014513
0.18836413 0.20904441 -0.0017068937 -0.17745726 0.01994194 0.22640736 0.13620648 0.020875238
0.25412893 0.18995324 0.13524528 0.11664032 -0.041913047 0.028074538 -0.023027351 0.019422386
-0.02120467 0.04043762 0.11817227 -0.0019702364 -0.087030366 -0.03720174 -0.07815334 -0.08093029
-0.10366739 -0.07967938 -0.15621541 -0.10927982 -0.11254831 -0.11829489 -0.07114078 -0.018451946
-0.16428778 -0.13574752 -0.07422886 -0.15195858 -0.06998016 -0.09609006 -0.02431788 -0.0628675
-0.022588996 -0.11792529 -0.060499255 -0.024314867 -0.097868145 -0.069618784 -0.04949712 -0.041834354
0.031720757 -0.07154152 -0.090960756 -0.012600234 0.0085928505 -0.036355477 -0.023092598 -0.039564647
-0.076228805 -0.03186009 -0.013618632 -0.06165162 -0.01434967 -0.099588595 0.054363206 0.010171876
-0.041011702 0.10372316 0.09631602 0.1730707 -0.14080827 -0.14367047 -0.22845465 0.17059703
-0.03404408 -0.1813336 0.03781316 -0.044510655 0.05590066 -0.09924929 -0.049933672 -0.037953924
-0.013679987 -0.061311033 -0.049804583 -0.044921163 -0.12611562 0.040371485 -0.11408712 -0.050133906
-0.01587873 -0.08844801 -0.014636801 0.058623422 0.024180317 0.063924216 0.08135437 0.13328755

features.3.bias f4 [64]
00000000: e1aa ffbd 0955 5a3d 546e 86bd ce58 9fbd
00000010: 1e4b bebb 6966 3ebd 534d f8bc c015 e8bc
00000020: 65a8 d4bc d384 bbbd 0230 b1bd 49c7 fcbd
00000030: ee50 cdbc 1763 b7bd 84fb 75bd bc40 dc3d
00000040: bfed 79bc e150 393d 484a f13c 093a 603d
00000050: 7cd2 81bd 7cd6 19bd 5d7e 103d e941 193c
00000060: 0958 b5bd 1d80 0a3e 63c5 ad3b a74b 0a3d
00000070: 8c11 e83c cd36 bdbd 79f1 c03a 270d d9bc
00000080: e80e c23d c64d 35bb 18b7 02bd 783a 613d
00000090: 7f78 b43c 0527 ad3e 4c71 48bb fd7f 5b3d
000000a0: f0a7 7f3e 90af 053c c131 b5bd ab56 bf3d
000000b0: b25b 9f3d f2cb 0e3d 63c8 51bc 98af e9bd
000000c0: 85f6 8e3d 26e3 d23c 54ba b9bd 00c5 99bc
000000d0: d993 aabd 0f6f 9c3d 2b86 79bc adaa d1bd
000000e0: ab45 a7bd eae4 7abd 70af 4e3d 291c 983d
000000f0: 1625 b0bc 2cff 62bd 1807 cebc 0892 b23c
-0.124837644 0.053303752 -0.06564012 -0.0778061 -0.0058072945 -0.046484385 -0.030310309 -0.028330684
-0.025959203 -0.091561936 -0.08651735 -0.12342698 -0.025063004 -0.08954447 -0.060054317 0.107545346
-0.015254437 0.045243148 0.029454365 0.054742847 -0.06338975 -0.037558064 0.03527676 0.009354093
-0.08854682 0.13525434 0.0053030713 0.033763554 0.02832868 -0.09238968 0.0014720402 -0.02649553
0.094754994 -0.0027664765 -0.031912893 0.0549874 0.022030113 0.33818832 -0.0030585108 0.053588856
0.24966407 0.008159533 -0.088473804 0.093427025 0.07781161 0.034862466 -0.012804124 -0.11410445
0.069806136 0.025743078 -0.090687424 -0.018770695 -0.08328981 0.0763837 -0.015229742 -0.10237632
-0.08167585 -0.061253466 0.05046028 0.07427246 -0.021502059 -0.055419132 -0.025149867 0.021798149

features.6.weight f4 [128, 64, 3, 3]
00000000: cf3f a83d b9e0 21bc d907 41bd 5130 a53c
00000010: 9b06 e1bc fab5 3d3a 8a80 613d e632 5b3d
00000020: 267c a6bd 4411 2abe 76f5 4fbe 2429 d4bd
00000030: 758f 90be d832 a4be 4148 36be b53e 53bd
00000040: 8f4c 34be 59c7 f3bd 02af 153d 04e0 7ebd
00000050: 93f0 70bd a809 db3d 357c c23d 9248 13be
00000060: 6d37 af3d d331 ec3d d079 febd 93d8 f33d
00000070: b503 313e ad2e 93bd 44b3 20bb 4e58 993d
00000080: 34b1 cb3c 1602 353c 7c44 583d 2941 cebd
00000090: 0037 523e b520 2f3c ea48 69be 0fde 9b3e
000000a0: 253c 953e 1527 e33b 7aa0 8d3d 6022 a03e
000000b0: 7606 0c3d 6c0b ec3d 2afc 823d 6991 213c
000000c0: 9993 383d 6ade 5a3d de53 c23d 2b92 493c
000000d0: c341 f73c 68d6 a93d 98f5 64bd b2e1 033d
000000e0: 3fe2 debb cf1a bdbd 7be0 ae3d a24e bc3b
000000f0: edba ffbd bc45 173e ce60 6b3d 7f50 c3bc
00000100: 7e01 1e3d 689d 38bd 2302 89bd 0d4b a43c
00000110: 7412 76bd 0875 52bd b837 643d 6637 8fbd
00000120: dff5 c23d 31b0 6d3d 849d 3bbe edf9 9e3d
00000130: e8a8 b43d 2b82 f3bd 4d82 a83b 2a1b fb3d
00000140: ba53 67bd 51f2 7f3d 273b 453d 53e0 aebd
00000150: e321 8cbc f92e c03d c1bf dfbd 5ea6 b83b
00000160: 7694 7f3d 7b5a 50be 5128 423e 00ca 2b3e
00000170: a8b5 5abe fb34 c33c bc1d 793d c6c5 47bc
00000180: 661c 1b3e 3b12 ea3c b71f 0ebd bf81 653e
00000190: d130 cf3d 4341 f8bd 51df 033e a283 413e
000001a0: d9e9 80bd a705 103d ed46 473e 9c79 3f38
000001b0: 94d5 0ebd 7698 5abd 43d3 83bc d4fb 72bb
000001c0: 8e8d 27bb 5f29 f9bd 3d7d d33c 32c4 c4bc
000001d0: 4b7d 09be 106e 353a 50e7 713e a6cf 263e
000001e0: 0a06 d7bb 80a3 913d 7b1f 403e 5e61 273e
000001f0: 63f6 a43e cc36 1d3e 4638 263e 555c f03d
00000200: b906 8fbd f800 3e3d 1ec9 0e3e d06a c9bc
00000210: af42 8b3d 3f5d 343e 8d3d 7cbd 7c0e 2dbd
00000220: b99d 483d ad04 273e 20bb 32be 9aa0 d5bd
00000230: c43c e33b 6cf7 c4bd 8f5b 6cbe 393d 5f3b
00000240: f37c 43bc 2210 b73d 2800 c63d 57a9 00be
00000250: 5164 a2bc 2de9 ac3c 846b 89bd f6eb 8cbd
00000260: 51c9 b6bd 9a99 1e3c 9c1b d5bd ab33 f53d
00000270: 4044 beba b199 d73a 5997 0f3e dc43 4dbd
00000280: 543e d5bd 53fc 52bd 0876 6cbc 18d9 2b3e
00000290: 01ac 26bd dff9 e5bc eee5 353d cb26 043d
000002a0: 20e6 4dbd 5399 173e 2927 26bd 6349 f7bc
000002b0: 2b28 58bd 18aa 15be 7745 11be eeff 2b3d
000002c0: e080 8abe 6d6a 29bd 59fd 01bd ca88 83be
000002d0: f464 213e d01c 9a3d 5e03 6dbc 5b1b a83d
000002e0: 5813 4e3d d5ca 983d 7ec1 bdbc 891f 043d
000002f0: 8059 e93c eeff 4cbd 23b6 10bc 80b6 7ebb
00000300: d76d 473c 29b5 abbb 3a01 6e3c eb0e ffbc
00000310: 1663 1b3b 6302 463c 772b 223e 0db1 593d
00000320: 56b6 9cbe 4dec 683b 25c6 b43c 2110 75be
00000330: 69ac eabc 7e04 5d3c 3f2a cfbd d2bf bb3c
00000340: 8e98 1abb 2b10 5c3d c89a e2bb acf4 f4bc
00000350: 7d37 2cbc c89d 2fbd f86d 8fbd a94a 06be
00000360: a4a7 b93d f69c 2fbb 10ab ddbd 22b9 22bb
00000370: 937e a0bb af28 2dbe bcf8 653d 8e9d 703d
00000380: 8b36 20be acef 293d fc57 bd3d 5845 6a3d
00000390: 82d9 45be bf61 41be 43b9 29be 2662 8dbe
000003a0: 6227 a9be d7ba 10be 8e41 5b3e 8c59 143e
000003b0: 8ae8 92be 5d57 b03c 0a25 163e 152b 8b3c
000003c0: 8490 3a3e 4bf1 483e 6b5a edbc 8498 583d
000003d0: fd48 403d 09a8 9c3d f4f7 39be 05e3 2abe
000003e0: 9955 e5bd 24ff 72be ca26 97be 0554 eebd
000003f0: c77c dabd fbf2 2b3d 3394 b13d ca61 06be
0.082152955 -0.009880238 -0.047126625 0.02016464 -0.02746897 0.00072368945 0.055054225 0.053515337
-0.08129148 -0.16608149 -0.2030848 -0.103594095 -0.2823445 -0.3207004 -0.17801 -0.051573474
-0.1760733 -0.11903257 0.036543854 -0.062225357 -0.05882318 0.10695201 0.09496347 -0.14383152
0.085554935 0.11532941 -0.12425578 0.11906543 0.1728657 -0.07186637 -0.0024520913 0.07487546
0.02486477 0.011047861 0.052799687 -0.10071022 0.20528793 0.01068895 -0.22781721 0.30442855
0.2914745 0.006932149 0.06915374 0.31276226 0.03418585 0.11525616 0.06395753 0.009861329
0.045062635 0.053434767 0.09488653 0.012302916 0.030182725 0.08292848 -0.05589828 0.03219766
-0.006801873 -0.09233629 0.0853891 0.0057466784 -0.12486825 0.14772695 0.057465367 -0.023842094
0.03857564 -0.04507199 -0.06689861 0.020055318 -0.060076192 -0.05138114 0.0557172 -0.06992988
0.095195524 0.058029357 -0.18321806 0.07762513 0.08821279 -0.11890062 0.005142486 0.122610405
-0.056476332 0.06248695 0.048152115 -0.0853888 -0.017106002 0.09383959 -0.10925246 0.005635067
0.062397443 -0.20347016 0.18960692 0.16776276 -0.21358359 0.023828974 0.060819373 -0.012193149
0.15147552 0.028573146 -0.034698214 0.22412775 0.10116733 -0.12121823 0.12878157 0.1889787
-0.06294603 0.03516164 0.1946065 4.5651206e-05 -0.034871653 -0.053368054 -0.016091948 -0.003707637
-0.002556655 -0.12166094 0.025816554 -0.024019334 -0.13426702 0.00069210026 0.23623395 0.16290149
-0.006561999 0.07111263 0.18762009 0.16345736 0.32219228 0.15352935 0.16232404 0.11736361
-0.06983704 0.046387643 0.13943908 -0.024587065 0.06799828 0.17613696 -0.061582137 -0.04225014
0.04897854 0.16310377 -0.17454195 -0.10431023 0.006934734 -0.096175045 -0.23081802 0.003406359
-0.011931646 0.08938624 0.096679986 -0.12564598 -0.019823225 0.02110728 -0.0670996 -0.068809435
-0.08925117 0.009680176 -0.10405657 0.119727455 -0.001451619 0.0016449002 0.14022578 -0.050113544
-0.10412279 -0.051510166 -0.014432438 0.16782033 -0.04069138 -0.02807325 0.04440873 0.03226356
-0.050268292 0.14804582 -0.04056469 -0.03018636 -0.052772682 -0.14615667 -0.14186655 0.04199212
-0.2705145 -0.04136126 -0.03173575 -0.256903 0.15761167 0.07525027 -0.014466135 0.08208343
0.050311416 0.07460562 -0.023163553 0.032256637 0.02848506 -0.05004876 -0.008832487 -0.0038866103
0.012172184 -0.005240102 0.01452666 -0.031135043 0.0023710183 0.01208553 0.15836893 0.053147364
-0.3060786 0.0035541237 0.022067139 -0.23931934 -0.028646665 0.013489841 -0.1011548 0.022918615
-0.0023589465 0.053726356 -0.006915424 -0.029901825 -0.010511276 -0.04287508 -0.07003397 -0.13114418
0.09065178 -0.0026796437 -0.10823643 -0.0024829586 -0.0048979013 -0.16910051 0.056145415 0.058744006
-0.15645806 0.041488335 0.09245297 0.057195038 -0.19321254 -0.18884943 -0.16574578 -0.27613944
-0.3303786 -0.14133774 0.21411726 0.14487284 -0.28693038 0.021526033 0.14662567 0.016988317
0.18219191 0.19623296 -0.028973779 0.052879825 0.046944607 0.07649238 -0.18160993 -0.16688164
-0.11197967 -0.23730141 -0.2952178 -0.11637119 -0.10668331 0.04197977 0.08670845 -0.13123241

features.6.bias f4 [128]
00000000: 092d 3dbb 2f44 bfbb 0693 48bd 6f59 c3bb
00000010: 34c2 f1bc 3cef 72bd 6db8 a6bc 14c9 fbbb
00000020: a446 89b9 918a 3fbd 3475 07bd f9be 95bc
00000030: afe5 8a3c be97 0dbd ba14 263d 4bd0 bcbd
00000040: be9f 80bd aca3 deba 6b36 db3c 6b3c 1ebd
00000050: 4519 643c 01e9 bebd f8d1 afbc ffaa 58bd
00000060: 599f acbd 6159 2dbd 8337 69bd 4a49 1abe
00000070: aad4 c4bd f527 a4bd 20ee 543c 9361 103d
00000080: 2a10 31bd 9aa7 acbc 8888 9fbd be58 2f3d
00000090: fc04 52bd dfe4 efbd ed5c 53bd 4776 37bd
000000a0: 8e88 77bb 8ebe 763c 7323 b1bd 7353 a4bd
000000b0: c183 51bd dd4c 263c d059 9abc 407d e0bd
000000c0: bb8b 11bc 1b2c 45bd 9c5d 87bd c8f5 f4bc
000000d0: 2a40 b1bd d4e1 2cbc ad0b 8a3c fa5c 41bd
000000e0: 8cfe a4bd e216 6abd e076 72bc a791 94bd
000000f0: 00ab bfbd d911 d13b 1c0c a3bc 97a2 b3bd
00000100: 00cc 343d d399 82bd 4c23 94bd 6352 d7bc
00000110: 10ba c2bc 1b7a 61bb 696a 7c3c 2345 4ebd
00000120: fecd 10bd d903 61bc bf45 f9bb 7ef3 a5bd
00000130: 6b50 20be ddae a6bc 32f3 c6bc 7169 053d
00000140: cbf5 d9bc 8fdb 71bd 1b7f 2ebd c78f 09be
00000150: 97dd a1bd a64e 693c ac23 0dbe 7cee 8fbd
00000160: ea2c 9e3c 047c 5cbd 225d 10bd de89 69bc
00000170: 4638 bfbd 870a 46bd e8b7 51bd fc8e 3cbd
00000180: 074c acbc 268e f23c f543 60bc 6017 4cbc
00000190: 4b6f b6bd c97e 6dbd c695 64bd d2f3 b8bd
000001a0: 4350 fa3b 97ff 4ebd de02 41bd 3fe1 b43c
000001b0: eda3 923d 76c0 5fbc fe8b d0bd 2318 3dbc
000001c0: 8074 a3bd 13d4 5e3c f287 90bd 5fc5 c6ba
000001d0: 6319 4fbd a4dc 31bd f224 97bd a84d 1cbe
000001e0: 8a16 9e3b bf95 26bd d15d 13bd 41ae ad3c
000001f0: 5826 c7bd 9c9f 85bd 22b2 033d 8cfc 8ebd
-0.0028865954 -0.0058369855 -0.048968337 -0.005961589 -0.029511549 -0.059310183 -0.020351613 -0.0076838825
-0.00026183308 -0.046763007 -0.033070758 -0.01827954 0.016955225 -0.03456854 0.04054711 -0.09219416
-0.062804684 -0.0016986034 0.026759347 -0.038631838 0.01392204 -0.09321786 -0.021462426 -0.05289745
-0.08428831 -0.042321566 -0.056937706 -0.1506702 -0.09610875 -0.08015434 0.012996227 0.035249304
-0.043228306 -0.021076012 -0.07789713 0.04280924 -0.051274285 -0.117135756 -0.051602293 -0.044790532
-0.0037770602 0.01506008 -0.086493395 -0.08023729 -0.05115104 0.010150162 -0.018841654 -0.109613895
-0.008883412 -0.048137765 -0.066096514 -0.029902354 -0.086548164 -0.0105518885 0.01685127 -0.04720781
-0.080563635 -0.05715073 -0.01479885 -0.072543435 -0.093587875 0.0063803014 -0.019903235 -0.08771246
0.044139862 -0.06376996 -0.07233295 -0.026284402 -0.023770362 -0.0034405056 0.0154062295 -0.050358903
-0.0353527 -0.0137338275 -0.0076071913 -0.08103083 -0.15655677 -0.020347053 -0.024285886 0.03257126
-0.026606461 -0.059047278 -0.042601686 -0.13433753 -0.07903593 0.014239943 -0.13783139 -0.07027909
0.019308526 -0.053829208 -0.03524507 -0.0142540615 -0.09336905 -0.048349883 -0.051200777 -0.046034798
-0.021032346 0.029608797 -0.013688077 -0.012456745 -0.08907946 -0.05798224 -0.055806898 -0.0903088
0.0076389625 -0.05053672 -0.047121875 0.022080062 0.071601726 -0.013656726 -0.101829514 -0.011541399
-0.07981205 0.013600367 -0.070571795 -0.0015165022 -0.05056132 -0.04342331 -0.07380094 -0.15263999
0.004824464 -0.040670153 -0.035978142 0.021201255 -0.0972411 -0.06524584 0.032152303 -0.06981763

classifier.weight f4 [369, 128]
00000000: 7785 12be 0e48 98bd 9b02 33bb 7d26 923d
00000010: b595 2dbe 7445 6cbe 440a 09bc e866 e2bb
00000020: ac1b 0d3c eaaa f53d 429d 9cbd 80c8 1c3d
00000030: 1af6 d4bc 098e 0e3e 7d75 debd 19d2 b73d
00000040: 87bb cebb abcd d83d 91bb 8ebe 1bc3 6cbe
00000050: 72ba 3d3c fd44 d8bc bd19 97bc a47a 06be
00000060: 4e9f f03b 7c6d 4a3e 3206 8e3a 2b65 313d
00000070: 9f7e 29be c185 de3d bcfa c6bd 2747 fe3c
00000080: 8532 59be b131 41bc 943e 90be 767d 51be
00000090: 6379 913b be62 aebe 102c bdbd 5994 19bd
000000a0: 8835 673d 667c 903d 92bf e9bd fbe8 76ba
000000b0: d8a1 5ebc dd1b 9f3c bbf2 143d 904e f93d
000000c0: 3127 b3bd de94 b4be 4bdd 263e 8448 16be
000000d0: c810 2abe 1e74 febd 30bb fd3c 2e34 c0bb
000000e0: c975 733e e494 823e d644 c03d a854 893c
000000f0: 6c43 093e c3f8 7a3d 4f04 963b 31c7 54bd
00000100: 2043 89bd 9bdd fb3d ac18 173e 3f8d eabd
00000110: ab8d 07bd 78e6 b53c 3545 61bc 0737 0cbb
00000120: 947c 84be 7b51 24bd 6fbe cabe 1119 d93c
00000130: 4238 773d f1bd aa3d fb42 c83c 81be 113e
00000140: 3d58 4a3b f14f 77bd 081c 32bc de4f f33d
00000150: 591e ea3d 7bab 6e3d 6f05 fc3c cf87 c93c
00000160: ff6b 663d 5aa2 dbbc 52d2 dcbb f4f8 77be
00000170: cffd 96be 1407 cfbc 41cf 2d3e 3dc0 a9bd
00000180: 1f51 5b3d 6877 9c3d 82b8 bebd 11ad 45be
00000190: 3de0 2abe 2787 3e3d 8b35 0b3e 7dc5 b73d
000001a0: 73cf 5f3a 3ebc 8b3d a6e0 c9bd a29b 513e
000001b0: b064 b4be ef91 f13c 1d3c 41bd be5c ea3d
000001c0: e15e f93b 782f 9cbd 6ebb cf3c 74a3 373d
000001d0: fd4f dcbb c69c bb3c f194 303e faa5 98be
000001e0: 5d62 493d ecd5 9bbd 5182 2fbe b49b 5ebd
000001f0: 3b3d 0d3e 0db4 30bd 1143 c23c f764 313d
00000200: 2478 fdbb b308 36bd 9a87 ac3a 9cc9 773d
00000210: 5535 0dbe 67a0 1bbe cc38 dcbc 7360 bbbd
00000220: 22b9 53bd 1ff4 0bbe 041f c93d 3952 01bd
00000230: a482 4e3d b5e5 6ebe 68fe 2c3e 576a 9f3d
00000240: a100 403e 918f 80be 7945 31be c8da f7bd
00000250: 8feb 64bd 3fbc 503d 395f d3bc 4877 afbd
00000260: 6746 4f3d b791 c2bd cc62 e83d a140 b03d
00000270: fd2f a43c 199d 3e3e 7021 ab3c 7d66 0f3e
00000280: 28ef 93be fae0 b9bd a5e7 2f3d 6806 e33d
00000290: 76af 99bd 80c7 303d 7234 07be e817 1cbe
000002a0: b39a 353d 36e2 61bd 915c f1bd 6c59 99bd
000002b0: a950 283d d8e9 9bbd 0e88 23be bd8f b33c
000002c0: bade 203d a14c 023e 8113 bfbe 7ea3 293d
000002d0: 9a14 9ebc 979c 1cbf f8e7 e9b8 5001 283c
000002e0: 0602 04be 8395 643e 830b 93bc d3d8 a2bb
000002f0: 15ed 9f3c 701c 4f3c e312 e9bd d243 01bd
00000300: e752 8d3d 180f 0ebd 9cd5 ccbd fa3a 9cbe
00000310: 5383 1f3e d3fd 2bbd d8f4 c7bc f7ae 133c
00000320: cc38 60bb 5b7c 76bd 963c 0b3e acea 1bbe
00000330: ff3c ea3c 6e82 32be cebe 91bc 7cfb eabc
00000340: 7f31 b9bd 7574 94bc 876d 07be 9cb5 403d
00000350: 1693 c7be e4bc a9bd 7f7d 8dbc f497 4bbd
00000360: e33b 313e 241d b3bd 729b dabc 3448 113e
00000370: 44e0 73be 7f69 173e a3c2 49bc 6e85 47bd
00000380: acdd b0bd d2a6 203d bf53 b1bd ce77 3ebe
00000390: 488b 4d3e a25b 993d e099 24be e830 9bbd
000003a0: 2a5b 133d 91e4 bbbd 97dd d9bd bb10 adbe
000003b0: 7130 e2bc b553 45bd b9ee d0bc b8c2 e03c
000003c0: 85ab 393d a078 253d 86cc 39be 393f 52be
000003d0: 0aea 463d 6d26 3a3e e8a7 ce3d 12cf 1ebe
000003e0: 9d88 013d fb8c b8be 24b2 693e 2631 4cbe
000003f0: 5042 303e 9239 903d 38ac a3bd 0328 c8bd
-0.14308725 -0.07435618 -0.0027314785 0.07136247 -0.1695164 -0.2307337 -0.008364264 -0.00690924
0.0086125545 0.1199549 -0.07647182 0.03827715 -0.025996257 0.1392137 -0.10862253 0.0897562
-0.006308976 0.10586103 -0.27877477 -0.23121302 0.011580097 -0.026400084 -0.01844489 -0.13132721
0.0073432093 0.19768327 0.0010835587 0.043309372 -0.16552208 0.10865355 -0.097157925 0.031039787
-0.21210678 -0.0117916325 -0.28172743 -0.20458016 0.0044395193 -0.3405971 -0.0923692 -0.03749499
0.056447536 0.07054977 -0.11413492 -0.0009418872 -0.013588391 0.019422466 0.0363643 0.12173188
-0.087477095 -0.35269827 0.16295354 -0.146761 -0.16607964 -0.12424491 0.030973047 -0.0058655953
0.237754 0.2550422 0.093881294 0.016764 0.13404626 0.061272394 0.0045781503 -0.051947776
-0.06702256 0.12298127 0.14755505 -0.11452722 -0.03309409 0.022204623 -0.01374941 -0.0021395104
-0.25876296 -0.04011677 -0.39598414 0.02650121 0.060356386 0.0833701 0.024446001 0.14232828
0.0030875348 -0.060378972 -0.010870941 0.11880468 0.114315696 0.058269005 0.03076431 0.024600891
0.056255337 -0.026810814 -0.0067389393 -0.24216062 -0.29490516 -0.02527193 0.16973592 -0.0828862
0.05354416 0.076399624 -0.09312536 -0.19304301 -0.16687103 0.04651561 0.13594644 0.08973215
0.0008537687 0.06823014 -0.098573014 0.20469525 -0.35233068 0.029488532 -0.04717647 0.114434704
0.0076101874 -0.076262414 0.025357928 0.044833615 -0.0067234025 0.022901904 0.17244317 -0.2981413
0.049166072 -0.07609162 -0.17139556 -0.05434771 0.13792889 -0.04314046 0.02371362 0.04330918
-0.007735269 -0.04444189 0.0013162971 0.060495004 -0.13789876 -0.15197907 -0.026882552 -0.091492556
-0.05169023 -0.13667344 0.09820369 -0.031572554 0.050417557 -0.23329814 0.16893923 0.077839546
0.1875024 -0.25109532 -0.17311658 -0.12102276 -0.05588871 0.050960775 -0.025802242 -0.08567673
0.05060425 -0.09500449 0.11346969 0.08606077 0.020042414 0.18614615 0.020889968 0.1400394
-0.288934 -0.09076114 0.042945523 0.11085206 -0.0750417 0.043159008 -0.132036 -0.15243495
0.044336986 -0.055147372 -0.11785234 -0.07487759 0.04109255 -0.076129615 -0.1596987 0.021919126
0.03927491 0.12724544 -0.37319568 0.041415684 -0.019296933 -0.6117644 -0.00011153513 0.010254219
-0.12891397 0.22322659 -0.017949825 -0.004969695 0.01952223 0.012641057 -0.113805555 -0.03155882
0.06900578 -0.034682363 -0.1000168 -0.30513746 0.1557744 -0.041990113 -0.024408743 0.009013883
-0.003421354 -0.06017719 0.1359733 -0.15226239 0.028593538 -0.17432567 -0.017791178 -0.02868437
-0.09042644 -0.018121937 -0.13225375 0.047048196 -0.38979405 -0.08287981 -0.017271755 -0.04970546
0.17308001 -0.087457925 -0.02668545 0.141877 -0.2381602 0.14786337 -0.012314471 -0.048711233
-0.086360306 0.039221592 -0.086585514 -0.1860039 0.20072663 0.07488181 -0.16074324 -0.075776875
0.035975613 -0.09174455 -0.10637968 -0.33801827 -0.02761099 -0.048175532 -0.025504457 0.0274366
0.04532959 0.04039824 -0.18144426 -0.2053193 0.04856304 0.18178721 0.10090619 -0.15508679
0.031624425 -0.3604506 0.22821862 -0.19940624 0.17212796 0.07042231 -0.079918325 -0.09773257

classifier.bias f4 [369]
00000000: 8a6b 32bc ccbe bf3c be6a 0abd 83d0 d13c
00000010: a654 4f3b 69eb 593d f1f6 143d c44f bfbc
00000020: c8f3 cc3d 3afc 41bd 221b 8bbd a3b2 ffbc
00000030: 6d17 b0bc 4760 7f3d bfc4 3dbc b44a ca3d
00000040: b6b1 de3d f152 0a3e 1645 3b3d 5e5b d9ba
00000050: 9f56 913c 8207 513c 68b4 fabc 12ad c43d
00000060: a62d d93c df81 22bd 1f7e f43c c226 663d
00000070: 90eb 61bd c1b8 e23c 51d3 5c3c b858 853d
00000080: d253 80bc a46f ddbd 698a 163d a9cd 45bd
00000090: 1ead 06bc 36c0 143c dbb7 4cbc 37d9 0e3d
000000a0: d90f 24bd 8078 23bd f0eb 793d 14d1 913d
000000b0: 7ba1 bd3d c80b 8abc 0540 e63d 086f bd3d
000000c0: 7b71 953d e4ae c0bd 15a3 623c 258c 523c
000000d0: 4eda 16bd a307 6a3d 137f 9b3d 2359 5a3c
000000e0: 01d8 4fbd 6a39 bc3c fe81 653d 5f86 0ebd
000000f0: 00f1 8bbd 3080 9abd a799 6d3d f04a 0b3d
00000100: 133e 8cbb 0a04 7cbd 1228 93bb 17c4 adbb
00000110: 7157 943c fa8e cdb9 9f40 e4bc eeb7 cf3d
00000120: c33c a8bb be2d af3b 591e 11bd 9e08 0e3e
00000130: 988e 29bc ef08 983d 3a19 30bd 8601 993d
00000140: 04b8 1abd 1016 b33d 7c9f a83d caf2 c33c
00000150: 38a9 99bd d4e7 6cbc 4018 223e 7742 d63d
00000160: d0cc 04bd 7fee 3dbd 0233 ab3b 645c 71bd
00000170: 6326 56bd 8d91 58bd c0eb 1ebd 86a8 b6bd
00000180: 8c5f 8cbd c614 c6bd cbc4 86bd b707 3a3d
00000190: 1a59 f6bd 5b81 ac3d 1828 67bd babe abbc
000001a0: e059 003e 1ac6 be3c 55a3 00be 5bfa 1fbe
000001b0: dd84 bebd 3263 7abb 571f a3bc 17e7 01bd
000001c0: 60f9 b0bd 61c4 aa3d 41c7 f8bd ced5 73bd
000001d0: 6708 113e 0da1 50bd 1f05 ea3d 84c4 7c3c
000001e0: f6ea 423d af23 9a3d 8fd5 07bd 4327 e8bb
000001f0: 4232 863c 4aef 353b fedc bebc bce7 a7bc
00000200: 3f73 593a f393 efbc 67a9 15bd 310e 89bd
00000210: 3592 f43a 12da c1bb 4da2 303c 7847 9fbd
00000220: 65c9 90bd 8dd5 c93d 23c4 f73d 47e8 103e
00000230: 0add e7bd a559 c03d 20ca b13d 3252 f4bd
00000240: 54fe 493c 72ab 753c bd44 e2bd 65e6 1b3d
00000250: 395c 8a3c 3481 b23d f179 cebc ede2 e4bd
00000260: d0c5 f73d ea84 bfbc 3d4a 033d 7c5a 8fbd
00000270: 588e 8d3c 154b 903d 5e49 123e ade5 4ebd
00000280: 7e60 c33a 9df0 73bd 994e bebc 6f5f d4bc
00000290: c164 bd3d eb76 db3d 114f d3bd ce9b 9fbd
000002a0: 18f5 9c3d 6003 043d 558a 41bd 8c23 0abd
000002b0: 222b 1fbd 9aa9 9abd fb20 963d 9c54 88bd
000002c0: 4b9d afbc 70fb 713d e132 3dbc 5c54 233d
000002d0: 6f1d 9a3d 8406 ffbd 73f0 983d 46cc f13c
000002e0: bcaa 7d3d d48e bebd 2d0e b5b9 5d26 013d
000002f0: d28f 67bc 8b9d 6abd 68db 5c3c 11d5 7bbd
00000300: d0c7 323d 3f45 2f3c ce94 04bd 104d 86bd
00000310: 72b3 94bd 5469 29bb 2f2c fabd fed2 cebd
00000320: d40b c5bc 3228 813d 804f 02bd a08b 09be
00000330: 37e0 c9bd e907 aebc e005 fb3a f8e3 58bd
00000340: 5171 ffbd 9dda 913c 05b0 ecbb e358 0dbd
00000350: c7f4 003c 1601 acbd cc63 a6bd ce88 e63c
00000360: 7145 3a3d 0272 393c a722 abbc cb50 bf3d
00000370: eec0 8cbb 9fef 81bd 8d59 703d 15f9 46bd
00000380: 0286 1abd 5988 8bbc 09d5 ccbc d788 df3d
00000390: 547d 3c3d 72a1 60bd be5e caba 9ba5 ffbd
000003a0: 9873 7bbd 9838 c93d efbb b93c 25e8 20bd
000003b0: 9d76 9bbd e775 6e3d 8535 463d 9de1 40bd
000003c0: 0c0e e8bd 49ff 65bd f50f cc3d 0cfb 753d
000003d0: 8a41 ed3b 7fe8 2dbd 03ee 303e 7de9 84bd
000003e0: c95c 85bc 61e6 3d3d 2647 de3d 40b6 afbd
000003f0: ab2d de3b 837c d23d 8340 383e ddea 80bd
-0.010889897 0.023406409 -0.033793204 0.025612121 0.0031636148 0.05320302 0.036368314 -0.023353465
0.10007435 -0.047359683 -0.067922845 -0.03121311 -0.021495545 0.062347677 -0.011582552 0.0987753
0.108737394 0.13508202 0.045720182 -0.0016583016 0.0177415 0.012758138 -0.030603603 0.09603323
0.026511025 -0.039674636 0.029845295 0.056189306 -0.05515629 0.027675988 0.013478116 0.065110624
-0.015664969 -0.108123094 0.036753092 -0.048291836 -0.008219985 0.00907903 -0.012495006 0.03487512
-0.040054176 -0.03990984 0.061016023 0.071199566 0.092593156 -0.01685132 0.112426795 0.09249693
0.07297035 -0.09408358 0.013832827 0.012850796 -0.036829285 0.05713619 0.07592597 0.013326916
-0.050743107 0.022976596 0.056032173 -0.034796115 -0.068330765 -0.07543981 0.058007862 0.034007013
-0.0042798608 -0.06152729 -0.0044908607 -0.0053029167 0.018108102 -0.00039207173 -0.027862845 0.10142504
-0.0051341965 0.005346029 -0.035429332 0.13870475 -0.010348938 0.07423579 -0.042992808 0.07470994
-0.037773147 0.087444425 0.08233544 0.023919482 -0.07502979 -0.014459569 0.15829563 0.10461896
-0.032421887 -0.046370026 0.0052245865 -0.058926 -0.052282702 -0.052873183 -0.038799047 -0.08918862
-0.068541616 -0.09671931 -0.06580504 0.045417514 -0.120287135 0.0842311 -0.05643472 -0.020964969
0.12534285 0.023287822 -0.12562306 -0.15622847 -0.093026854 -0.0038206098 -0.019912405 -0.031714525
-0.086413145 0.083382376 -0.1214738 -0.059530072 0.14163361 -0.05093484 0.11426758 0.015427712
0.047587357 0.07526337 -0.03316265 -0.0070847585 0.016381387 0.0027761036 -0.023298737 -0.020496242
0.0008295066 -0.029245352 -0.036538508 -0.0669216 0.0018659296 -0.0059158886 0.010780883 -0.077773035
-0.07069663 0.09855185 0.12097957 0.14151107 -0.11321457 0.09392098 0.086811304 -0.1192974
0.012328703 0.014994489 -0.11048267 0.03806152 0.016889678 0.0871605 -0.02520463 -0.11176095
0.120982766 -0.023378808 0.03205322 -0.069996804 0.017279789 0.07045571 0.142858 -0.050512005
0.0014906076 -0.05955564 -0.023230838 -0.025924413 0.09247733 0.10716041 -0.10317815 -0.07793389
0.076639354 0.03222978 -0.047251064 -0.033725306 -0.038859494 -0.0755188 0.07330509 -0.06656763
-0.021437308 0.05907768 -0.011547775 0.039875373 0.07525145 -0.12452415 0.07467737 0.02951635
0.061930403 -0.09304586 -0.00034533572 0.031530727 -0.0141334105 -0.05727915 0.013480045 -0.061482493
0.043647587 0.010697662 -0.032368474 -0.06557667 -0.07260789 -0.0025850134 -0.122154586 -0.10098837
-0.024053492 0.06306495 -0.0318141 -0.13432169 -0.09857219 -0.021244006 0.0019151531 -0.052951783
-0.12472785 0.017804438 -0.0072231316 -0.034508597 0.0078708595 -0.083986446 -0.081245035 0.028141405
0.04547638 0.0113186855 -0.020890547 0.09341582 -0.00429546 -0.06344532 0.058679152 -0.048577387
-0.037725456 -0.017032789 -0.025003927 0.10914772 0.04601796 -0.054841466 -0.0015439612 -0.124827586
-0.061389536 0.098252475 0.022672622 -0.03928389 -0.07590983 0.05821791 0.048390884 -0.04709016
-0.11330804 -0.056151662 0.09963981 0.06005387 0.007240479 -0.042458054 0.17278294 -0.06489847
-0.016279595 0.046362285 0.10853414 -0.08579683 0.0067803464 0.10277655 0.1799336 -0.062947966
